model/keypoint_classifier/keypoint_classifier.tflite (tflite, 6544 bytes, 6 tensors)

sequential/dense/BiasAdd/ReadVariableOp f4 [20]
-0.43237802 -0.16318546 -0.46272436 -0.9835308 -0.84448916 -0.36844623 -0.5034018 -0.4471072
-0.4898893 -0.38889733 -0.87382394 -0.39857286 -0.19036795 -0.37035668 -0.14822583 -0.3553964
-0.88359404 -0.50463605 -0.8908076 -0.344853
00000000: a760 ddbe 171a 27be 35ea ecbe adc8 7bbf
00000010: 7130 58bf fca4 bcbe f1de 00bf 3ceb e4be
00000020: c5d2 fabe 8d1d c7be edb2 5fbf be11 ccbe
00000030: d1ef 42be 649f bdbe 83c8 17be 84f6 b5be
00000040: 3833 62bf d42f 01bf f80b 64bf 9390 b0be

sequential/dense_2/BiasAdd/ReadVariableOp f4 [4]
-0.52378213 0.09290879 0.082098044 0.41767064
00000000: 9616 06bf f746 be3d 0523 a83d edd8 d53e

sequential/dense_1/BiasAdd/ReadVariableOp f4 [10]
0.3354238 -0.40621573 0.7556621 0.10426519 -0.22460307 0.5890986 0.44039947 0.78142107
-0.0048697335 0.48383725
00000000: abbc ab3e 82fb cfbe 1273 413f fd88 d53d
00000010: 59fe 65be 2acf 163f 0a7c e13e 360b 483f
00000020: 4992 9fbb 84b9 f73e

sequential/dense/MatMul f4 [20, 42]
0.23051697 -0.15954223 -0.02759632 -0.08126714 0.00814999 -0.23223473 -0.08442915 -0.5882431
-0.074917145 -0.6931642 -0.099697314 0.046370625 -0.057529684 -0.009135728 -0.02775642 0.06499142
0.0052938373 0.023385435 -0.10653479 -0.058116775 -0.009208945 -0.036083147 0.050815646 0.052389886
0.054214884 0.19487584 -0.112011954 -0.0146261165 0.032592334 0.037293863 0.041426446 0.23282914
0.17123108 0.7084728 -0.12126664 -0.047695335 0.043678485 0.05933821 0.16645873 0.25642633
0.2622157 0.71734995 -0.15753144 0.13616282 -0.3587632 0.2619614 -0.04537643 0.17007041
-0.0242375 0.14816788 -0.017739099 0.13059297 -0.068043895 0.051245324 -0.1495431 -0.2955837
-0.08667028 -0.575382 -0.2663772 -0.1442659 -0.08222409 -0.010144619 -0.10256026 -0.166869
0.15765497 0.31837824 0.37563998 0.5970414 -0.1690383 -0.06059661 -0.1044655 -0.118280135
0.14731666 0.5836599 0.3944988 0.8305579 -0.10913737 -0.11670482 -0.122870386 -0.10593885
0.00044215296 0.21064115 0.37885815 0.68288004 0.071468234 0.2232582 -0.09203463 0.13156022
0.02363297 0.13837974 -0.115598164 0.15081128 -0.3415549 0.13372223 0.21224986 0.058174785
0.113013744 -0.022402214 0.11088911 0.26741716 -0.021224128 0.23356938 0.04204089 0.02880015
0.052068226 -0.20219123 0.055034477 -0.38317367 -0.16321966 -0.593228 0.08002031 -0.14989585
-0.060048137 -0.4317805 -0.08611994 -0.76757807 0.023880756 -0.6118439 0.066269904 -0.41882056
-0.13330314 -0.6961473 -0.08942627 -0.97041535 -0.33273196 -1.077591 0.23269928 -0.22442615
1.0358195 -0.074451104 0.6277806 0.04756889 0.32962725 0.01465992 0.29403207 -0.094603814
0.4044978 0.5422482 0.10667682 0.15405104 -0.16415165 0.06551758 -0.22309802 0.008937687
0.29939002 0.27695602 0.08900646 0.010933528 -0.09018341 0.0017763618 -0.16401793 0.04867118
0.25845152 0.16903989 0.15568133 -0.21685028 -0.13469765 -0.018646564 -0.1537659 0.022546107
0.27710226 -0.19002363 0.26113218 -0.09908041 0.05643319 -0.058119692 0.00920196 0.010459303
0.19401288 0.1922099 0.4497377 -0.47790152 0.3220787 -0.32348973 0.42674345 -0.3284186
0.06923195 -0.30764788 0.19862954 -0.21933725 -0.010600654 -0.018193815 -0.16894539 0.10513806
-0.18959989 0.09282184 0.2989231 -0.09986369 0.10475918 -0.113251574 -0.02348379 0.06507201
-0.032859955 0.12675558 0.13161135 -0.1934344 0.045497287 -0.044204623 0.0048889997 0.085986204
-0.023494264 0.1420473 0.16179031 -0.13481638 0.060793407 -0.18500592 0.0675527 0.018633826
0.011184725 0.05124621 0.2088154 -0.21791327 0.0340861 0.23875664 0.0335652 0.122889444
0.018116798 0.11129751 0.0054814937 0.08309381 0.039679926 0.08456293 0.013611745 0.081629366
-0.035632186 0.09671974 -0.24808466 -1.2649459 0.043357626 0.10930547 -0.0077304933 0.108783565
0.028516287 0.066550225 0.09161546 0.026699137 -0.033446234 0.10404055 -0.048780825 0.09416545
0.005063283 0.035739392 0.038356725 0.05508804 -0.019352755 0.11883479 -0.056094367 0.08857852
-0.014438837 0.009404411 0.04483332 -0.084442474 0.14432803 0.14280069 0.24631645 0.3511437
00000000: a40c 6c3e 0a5f 23be ad11 e2bc 636f a6bd
00000010: 8987 053c f1ce 6dbe 31e9 acbd 1a97 16bf
00000020: 296e 99bd 3673 31bf 1b2e ccbd 20ef 3d3d
00000030: 3fa4 6bbd 05ae 15bc 6f61 e3bc 391a 853d
00000040: ed77 ad3b d092 bf3c e92e dabd db0b 6ebd
00000050: 1de1 16bc eccb 13bd 1124 503d c796 563d
00000060: 6d10 5e3d 888d 473e 8666 e5bd 61a2 6fbc
00000070: 8a7f 053d 73c1 183d c7ae 293d c36a 6e3e
00000080: 3357 2f3e 795e 353f a55a f8bd 2f5c 43bd
00000090: 36e8 323d 9f0c 733d 2874 2a3e 504a 833e
000000a0: 2341 863e 3fa4 373f ec4f 21be 446e 0b3e
000000b0: cfaf b7be ce1f 863e a3dc 39bd f026 2e3e
000000c0: b98d c6bc 52b9 173e 9651 91bc 2aba 053e
000000d0: 995a 8bbd 9ee6 513d d421 19be bf56 97be
000000e0: 3080 b1bd 3c4c 13bf 9862 88be 71ba 13be
000000f0: 1b65 a8bd 9e35 26bc 1d0b d2bd b5df 2abe
00000100: 4e70 213e 7902 a33e e253 c03e b5d7 183f
00000110: 6018 2dbe 2734 78bd 02f2 d5bd db3c f2bd
00000120: 2eda 163e bc6a 153f bffb c93e 719f 543f
00000130: 6a83 dfbd f002 efbd 78a3 fbbd 78f6 d8bd
00000140: c4d0 e739 50b2 573e b2f9 c13e 3ad1 2e3f
00000150: f05d 923d cc9d 643e a77c bcbd b9b7 063e
00000160: ee99 c13c 6bb3 0d3e bbbe ecbd 466e 1a3e
00000170: 49e0 aebe 7bee 083e 0758 593e af48 6e3d
00000180: c073 e73d d984 b7bc d419 e33d e7ea 883e
00000190: 39de adbc d02c 6f3e 1133 2c3d 4bee eb3c
000001a0: 7e45 553d 380b 4fbe d56b 613d 572f c4be
000001b0: 0e23 27be cadd 17bf b0e1 a33d 4c7e 19be
000001c0: 09f5 75bd 5512 ddbe a75f b0bd ff7f 44bf
000001d0: 93a1 c33c cda1 1cbf 84b8 873d a66f d6be
000001e0: 9e80 08be b636 32bf 1f25 b7bd 246d 78bf
000001f0: d85b aabe 80ee 89bf b848 6e3e f8cf 65be
00000200: bc95 843f d279 98bd 3bb6 203f 99d7 423d
00000210: e7c4 a83e 2930 703c 5f8b 963e a5bf c1bd
00000220: 561a cf3e c7d0 0a3f 6079 da3d 8ebf 1d3e
00000230: 5f17 28be 152e 863d cf73 64be 606f 123c
00000240: a649 993e 2ecd 8d3e 0549 b63d 8a22 333c
00000250: 14b2 b8bd d0d4 e83a 51f4 27be 6e5b 473d
00000260: c253 843e cb18 2d3e ed6a 1f3e 000e 5ebe
00000270: 2eee 09be aec0 98bc cf74 1dbe 9db2 b83c
00000280: 59e0 8d3e 8e95 42be 1eb3 853e acea cabd
00000290: 7d26 673d ea0e 6ebd d1c3 163c 7f5d 2b3c
000002a0: 50ab 463e acd2 443e 0544 e63e 82af f4be
000002b0: 80e7 a43e 72a0 a5be 1e7e da3e 7c26 a8be
000002c0: 7bc9 8d3d 0684 9dbe 8b65 4b3e f299 60be
000002d0: 5eae 2dbc 320b 95bc 0500 2dbe a052 d73d
000002e0: 7926 42be 6019 be3d 730c 993e 5685 ccbd
000002f0: fb8b d63d 71f0 e7bd 1461 c0bc 7944 853d
00000300: 2998 06bd 37cc 013e 20c5 063e ab13 46be
00000310: 5d5b 3a3d e80f 35bd e733 a03b 8919 b03d
00000320: 0b77 c0bc d974 113e 5cac 253e 4e0d 0abe
00000330: 8202 793d 3172 3dbe 1259 8a3d f7a5 983c
00000340: 2340 373c 8ce7 513d b4d3 553e a824 5fbe
00000350: de9d 0b3d 9f7c 743e aa7b 093d 76ad fb3d
00000360: ae69 943c f3ef e33d 1a9e b33b 162d aa3d
00000370: 6b87 223d 542f ad3d cc03 5f3c 4c2d a73d
00000380: 0ef3 11bd 0015 c63d e809 7ebe bfe9 a1bf
00000390: c497 313d 8cdb df3d 1450 fdbb ebc9 de3d
000003a0: fd9a e93c 7c4b 883d e3a0 bb3d 26b8 da3c
000003b0: ebfe 08bd 3613 d53d 67ce 47bd d1d9 c03d
000003c0: e5e9 a53b 7863 123d f11b 1d3d ffa3 613d
000003d0: ab89 9ebc a85f f33d 35c3 65bd a868 b53d
000003e0: df90 6cbc f514 1a3c 25a3 373d 2df0 acbd
000003f0: baca 133e 583a 123e 613a 7c3e 1bc9 b33e

sequential/dense_1/MatMul f4 [10, 20]
-0.5930318 0.31865874 0.40250853 -0.25481823 -0.2733268 0.85594445 -0.3177228 -0.39182404
-0.53404033 0.403066 -0.2287087 -0.18793112 0.67949545 -0.030661294 -0.28607363 -0.35310137
-0.16603936 -0.43610442 0.1625885 0.025434883 0.944671 -0.52946943 0.40837458 0.075384565
-0.67432576 0.3245061 0.015978599 -0.06896737 -0.8369054 0.53821427 -0.16206205 -0.51316446
-0.08309678 -0.50220823 0.07160935 0.05084002 -0.7939495 -0.41037676 -0.1611907 0.29842985
1.0885593 0.064326905 -0.99890375 0.31313038 0.62616426 0.19928965 -0.016238071 -0.12854865
0.9257738 0.4270891 0.7298158 -0.043772474 0.07334035 -0.09169085 -0.74389476 -0.016221624
0.3985973 0.15367815 0.007704985 -0.15295655 -0.26883253 -0.40731892 0.21469255 -0.3888792
-0.07386531 0.39809737 0.71409273 0.6263677 0.57283086 0.17676617 0.24071707 0.6369917
0.08453531 0.65378696 0.41305608 0.7705258 -0.2918278 0.7318367 -0.05618614 0.27114266
0.4403929 0.57068586 -0.09649821 -0.14832424 -0.26243314 -0.15060301 -0.32080814 -0.7287988
0.51954967 0.69446725 -0.5314036 -0.09981349 0.3625392 -0.21446152 0.4857719 1.1303936
-0.54499024 -0.5056675 0.057091918 -0.1709238 -0.11027475 0.2461535 -0.07600036 0.40692443
-0.4564119 -0.6487685 -0.21864961 -0.5578615 -0.24224834 -0.2287081 -0.4574943 -0.43386516
-1.0711178 -0.3625014 0.1306306 -0.46443832 -0.5584591 -0.29466707 0.47068682 0.5831642
-0.12824647 0.23061885 0.6832732 0.8312262 -0.2472957 0.96921587 0.6307754 0.33408904
-0.54113805 1.1653168 0.28998095 0.11883521 0.79433614 0.53171384 0.6207098 -0.23054838
-0.085734926 0.28908563 0.88583654 0.88912994 -0.72105443 0.019599851 -0.07214236 -0.057979237
-0.25100988 0.72499454 -0.5954721 -1.8044522 -0.4272156 -0.681305 -0.25159228 -1.2743133
0.048528552 -0.89792967 -0.010136536 -0.90004194 -0.24326362 -0.9541581 0.016231686 0.6064671
0.0007308624 0.7454459 0.58283424 0.40396637 0.020950606 0.33156523 0.69891423 1.0194126
0.1734384 0.20464963 -0.114313096 0.078754716 -0.0015011667 0.46598193 0.41411784 0.44580945
-0.061066464 0.9364244 -0.13428524 0.6930396 -0.046929482 -0.037174292 0.34285414 1.2027769
1.137728 -0.9425822 0.244733 -0.30599508 -0.18208843 0.4767952 0.835425 -0.3305297
0.57620883 -0.12395961 0.4195092 0.14718972 0.7056953 0.13344485 0.738216 -0.35348526
00000000: efd0 17bf 3d27 a33e 9915 ce3e 8977 82be
00000010: 7ef1 8bbe 2d1f 5b3f 90ac a2be 299d c8be
00000020: deb6 08bf ab5e ce3e 9d32 6abe 0471 40be
00000030: 6af3 2d3f 652d fbbc 3e78 92be b4c9 b4be
00000040: 3906 2abe 1449 dfbe 9a7d 263e d15c d03c
00000050: f5d5 713f 4f8b 07bf 7916 d13e 3963 9a3d
00000060: 9da0 2cbf aa25 a63e 8de5 823c c43e 8dbd
00000070: 6f3f 56bf 69c8 093f 98f3 25be bf5e 03bf
00000080: a52e aabd b890 00bf eca7 923d a03d 503d
00000090: 4640 4bbf e71c d2be 2d0f 25be cccb 983e
000000a0: e955 8b3f d3bd 833d 28b8 7fbf a052 a03e
000000b0: 4d4c 203f 9612 4c3e b405 85bc 42a2 03be
000000c0: 83ff 6c3f 6cab da3e 35d5 3a3f c44a 33bd
000000d0: 7733 963d 6ac8 bbbd e36f 3ebf 36e3 84bc
000000e0: f214 cc3e ce5d 1d3e 197a fc3b a4a0 1cbe
000000f0: 6ba4 89be 1b8c d0be 5dd8 5b3e 2d1b c7be
00000100: b246 97bd 6bd3 cb3e c8ce 363f a259 203f
00000110: 0ba5 123f 3102 353e 897e 763e e311 233f
00000120: d920 ad3d 955e 273f 167c d33e 2e41 453f
00000130: 746a 95be a659 3b3f 7023 66bd 36d3 8a3e
00000140: 2e7b e13e 7818 123f dba0 c5bd 4fe2 17be
00000150: a35d 86be ad37 1abe f740 a4be 8f92 3abf
00000160: 3501 053f 9bc8 313f 110a 08bf 046b ccbd
00000170: bd9e b93e cd9b 5bbe 18b7 f83e bdb0 903f
00000180: 7b84 0bbf 6d73 01bf 37d9 693d a606 2fbe
00000190: bad7 e1bd aa0f 7c3e 14a6 9bbd 6658 d03e
000001a0: d2ae e9be b115 26bf afe5 5fbe 03d0 0ebf
000001b0: f30f 78be 7532 6abe b13c eabe 9323 debe
000001c0: 631a 89bf c999 b9be 07c4 053e dcca edbe
000001d0: 2df7 0ebf 9ade 96be ddfd f03e 404a 153f
000001e0: 0b53 03be 5927 6c3e feea 2e3f 3ecb 543f
000001f0: 153b 7dbe 881e 783f 7f7a 213f b80d ab3e
00000200: 0688 0abf 1a29 953f 6278 943e e05f f33d
00000210: 9d59 4b3f 661e 083f d6e6 1e3f e014 6cbe
00000220: cb95 afbd 0803 943e 2fc6 623f 059e 633f
00000230: 0697 38bf de8f a03c 60bf 93bd a37b 6dbd
00000240: 5e84 80be 3e99 393f dc70 18bf 4af8 e6bf
00000250: 01bc dabe 016a 2ebf b4d0 80be b31c a3bf
00000260: e0c5 463d b8de 65bf b713 26bc 2669 66bf
00000270: 191a 79be b543 74bf 50f8 843c 6e41 1b3f
00000280: 5897 3f3a 8bd5 3e3f a034 153f aed4 ce3e
00000290: 9ba0 ab3c ebc2 a93e 0bec 323f 1d7c 823f
000002a0: d699 313e ac8f 513e fc1c eabd 274a a13d
000002b0: ccc2 c4ba 2f95 ee3e 4107 d43e 2341 e43e
000002c0: d420 7abd 82b9 6f3f 1282 09be 0b6b 313f
000002d0: 2139 40bd 1244 18bd 948a af3e 98f4 993f
000002e0: 12a1 913f 114d 71bf 4a9b 7a3e 63ab 9cbe
000002f0: 6475 3abe 801e f43e 6ade 553f 303b a9be
00000300: 6c82 133f 89de fdbd e9c9 d63e e7b8 163e
00000310: 72a8 343f c4a5 083e b9fb 3c3f 05fc b4be

sequential/dense_2/MatMul f4 [4, 10]
-0.65868205 0.45798525 0.28268307 1.1351134 1.2992355 -0.34506592 -0.105948165 -0.24321651
0.38528347 -0.6505222 -0.41944936 -0.6330441 0.16361076 -0.17279729 -0.8274723 0.34239483
0.01590131 -1.3644607 -0.13999449 1.1810664 0.5797585 -0.789966 -0.768581 -0.764221
0.08296215 1.1560553 0.39664963 1.4819165 -0.6140885 -0.45526278 -1.1628547 0.009632598
1.0130943 -0.84173876 -0.92519885 -0.40219647 -1.7031752 -0.59790176 -1.770843 0.28287253
00000000: 639f 28bf 0b7d ea3e d6bb 903e 654b 913f
00000010: 594d a63f 7bac b0be 5afb d8bd c00d 79be
00000020: e043 c53e 9f88 26bf 11c2 d6be 2e0f 22bf
00000030: 9489 273e c6f1 30be 3ad5 53bf 604e af3e
00000040: 7743 823c a6a6 aebf b75a 0fbe 2f2d 973f
00000050: 0e6b 143f 363b 4abf b9c1 44bf fda3 43bf
00000060: 0fe8 a93d 9ff9 933f a915 cb3e 71af bd3f
00000070: e734 1dbf 3418 e9be 6cd8 94bf 0bd2 1d3c
00000080: 13ad 813f 317c 57bf d5d9 6cbf b2ec cdbe
00000090: a501 dabf 1710 19bf fcaa e2bf abd4 903e
